data/mod_params_fp49.npy (npy, 142736 bytes, 1 tensors)

array f8 [5942, 3]
00000000: 4c37 8941 60e5 b03f 0c02 2b87 16d9 ce3f
00000010: c408 e1d1 c611 e0bf daac fa5c 6dc5 ae3f
00000020: 3411 363c bd52 a6bf fb74 3c66 a032 d83f
00000030: fa7e 6abc 7493 c83f fed4 78e9 2631 d0bf
00000040: 3b8d b454 de8e a03f 38f8 c264 aa60 b43f
00000050: 6f12 83c0 caa1 d53f 740c c85e effe d43f
00000060: cba1 45b6 f3fd c43f ba49 0c02 2b87 d6bf
00000070: 295c 8fc2 f528 c43f 0534 1136 3cbd b23f
00000080: 1b2f dd24 0681 e1bf 8846 7710 3b53 c4bf
00000090: f4fd d478 e926 c13f 2db2 9def a7c6 d3bf
000000a0: 4221 020e a14a dd3f 3d9b 559f abad b83f
000000b0: 1f85 eb51 b81e c53f 211f f46c 567d d83f
000000c0: a01a 2fdd 2406 c13f 5a64 3bdf 4f8d d7bf
000000d0: 2fa8 6f99 d365 e23f f4fd d478 e926 c13f
000000e0: 1283 c0ca a145 debf 8d7a 8846 7710 d73f
000000f0: 08ac 1c5a 643b bf3f 9318 0456 0e2d da3f
00000100: b329 5778 978b debf 23db f97e 6abc c43f
00000110: 772d 211f f46c a6bf 8d62 b9a5 d590 b03f
00000120: 1d38 6744 696f b03f a01a 2fdd 2406 d93f
00000130: 27a0 89b0 e1e9 d7bf ba49 0c02 2b87 c63f
00000140: 3108 ac1c 5a64 dbbf 8620 0725 ccb4 d7bf
00000150: f2d2 4d62 1058 c93f b29d efa7 c64b c73f
00000160: 0872 50c2 4cdb afbf 022b 8716 d9ce c73f
00000170: c74b 3789 4160 c53f 2922 c32a dec8 ccbf
00000180: 17d9 cef7 53e3 c53f 2d21 1ff4 6c56 adbf
00000190: 63d1 7476 3238 dabf 8195 438b 6ce7 bb3f
000001a0: 986e 1283 c0ca c13f fd13 5cac a8c1 94bf
000001b0: b072 6891 ed7c bf3f e17a 14ae 47e1 ba3f
000001c0: f9bd 4d7f f623 c93f 05a3 923a 014d b43f
000001d0: 14ae 47e1 7a14 e2bf d6a8 8768 7407 e3bf
000001e0: 1283 c0ca a145 c63f e7fb a9f1 d24d d2bf
000001f0: 7dae b662 7fd9 d3bf 79e9 2631 08ac bc3f
00000200: e926 3108 ac1c da3f 745e 6397 a8de 6a3f
00000210: b072 6891 ed7c af3f 1058 39b4 c876 ae3f
00000220: c6c4 e6e3 da50 e2bf 39b4 c876 be9f ba3f
00000230: 1ac0 5b20 41f1 b33f 6666 6666 6666 cabf
00000240: 6f12 83c0 caa1 c53f cf66 d5e7 6a2b b6bf
00000250: 0edb 1665 36c8 e2bf 39b4 c876 be9f ba3f
00000260: f628 5c8f c2f5 d8bf ff04 172b 6a30 d1bf
00000270: f2d2 4d62 1058 c93f f853 e3a5 9bc4 d8bf
00000280: cec7 b5a1 629c afbf df4f 8d97 6e12 c33f
00000290: e5d0 22db f97e ca3f efac dd76 a1b9 d83f
000002a0: fed4 78e9 2631 b83f 9eef a7c6 4b37 d93f
000002b0: 05c5 8f31 772d cdbf 0000 0000 0000 c03f
000002c0: 60e5 d022 dbf9 d6bf 2f17 f19d 98f5 d43f
000002d0: 54e3 a59b c420 c03f 83c0 caa1 45b6 dbbf
000002e0: 9e41 43ff 0417 c73f 9cc4 20b0 7268 c13f
000002f0: aaf1 d24d 6210 d83f 1b12 f758 fad0 c93f
00000300: e926 3108 ac1c ba3f a245 b6f3 fdd4 e03f
00000310: 3e22 a644 12bd d63f 569f abad d85f b63f
00000320: a8c6 4b37 8941 d8bf c3f5 285c 8fc2 d7bf
00000330: 3bdf 4f8d 976e c23f 8941 60e5 d022 9b3f
00000340: 789c a223 b9fc c73f 2b87 16d9 cef7 c33f
00000350: 7b14 ae47 e17a d43f cc7f 48bf 7d1d debf
00000360: 1058 39b4 c876 be3f 5839 b4c8 76be d73f
00000370: 6ad9 5a5f 24b4 c93f 79e9 2631 08ac bc3f
00000380: 79e9 2631 08ac dcbf 9b5a b6d6 1709 e1bf
00000390: d881 7346 94f6 b63f 6891 ed7c 3f35 d6bf
000003a0: 423e e8d9 acfa e1bf 27a0 89b0 e1e9 b53f
000003b0: f4fd d478 e926 b13f 8868 7407 b133 c5bf
000003c0: 6891 ed7c 3f35 be3f 2fdd 2406 8195 c33f
000003d0: e292 e34e e960 d33f c1ca a145 b6f3 bd3f
000003e0: b29d efa7 c64b c7bf 6570 94bc 3ac7 a0bf
000003f0: 7b14 ae47 e17a c43f 1904 560e 2db2 cdbf
00000400: 0e4a 9869 fb57 d43f 64cc 5d4b c807 ad3f
00000410: cba1 45b6 f3fd e0bf 31b6 10e4 a084 b93f
00000420: 91ed 7c3f 355e ba3f 3bdf 4f8d 976e da3f
00000430: 7008 556a f640 c7bf 8716 d9ce f753 c33f
00000440: 7593 1804 560e dd3f cba1 45b6 f3fd c4bf
00000450: 17d9 cef7 53e3 c53f ae47 e17a 14ae b73f
00000460: dd07 20b5 8993 e1bf 2731 08ac 1c5a b43f
00000470: 60e5 d022 dbf9 debf 936f b6b9 313d d53f
00000480: e414 1dc9 e53f b43f 9643 8b6c e7fb d93f
00000490: bb61 dba2 cc06 79bf 21b0 7268 91ed bc3f
000004a0: f0a7 c64b 3789 d1bf 9a25 016a 6ad9 aabf
000004b0: 3f35 5eba 490c c23f f628 5c8f c2f5 e03f
000004c0: fa44 9e24 5d33 b9bf f853 e3a5 9bc4 c03f
000004d0: 0c02 2b87 16d9 e2bf 8846 7710 3b53 e13f
000004e0: 560e 2db2 9def c73f 2653 05a3 923a b13f
000004f0: c51b 9947 fe60 d2bf fed4 78e9 2631 c83f
00000500: 7b14 ae47 e17a c4bf af25 e483 9ecd d83f
00000510: db8a fd65 f7e4 b13f 3411 363c bd52 a63f
00000520: 1075 1f80 d426 bebf 8716 d9ce f753 c33f
00000530: 79e9 2631 08ac bcbf 5beb 8b84 b69c db3f
00000540: 12a5 bdc1 1726 b33f b072 6891 ed7c cfbf
00000550: cd3b 4ed1 915c e03f 6132 5530 2aa9 b33f
00000560: 1f85 eb51 b81e ddbf 07b6 4ab0 389c d73f
00000570: 448b 6ce7 fba9 c13f 3108 ac1c 5a64 cb3f
00000580: e8a4 f78d af3d c3bf 83c0 caa1 45b6 c33f
00000590: 6666 6666 6666 d63f 2462 4a24 d1cb e03f
000005a0: e7fb a9f1 d24d c23f d578 e926 3108 cc3f
000005b0: 3272 16f6 b4c3 c33f f628 5c8f c2f5 c83f
000005c0: 8b6c e7fb a9f1 d2bf 1f80 d426 4eee e23f
000005d0: 6ff0 85c9 54c1 b83f ba49 0c02 2b87 d63f
000005e0: 0d71 ac8b db68 d8bf d34d 6210 5839 c43f
000005f0: 1f85 eb51 b81e d53f 7f13 0a11 7008 d7bf
00000600: a01a 2fdd 2406 c13f 0e2d b29d efa7 de3f
00000610: 83fa 9639 5d16 d1bf 5e4b c807 3d9b b53f
00000620: a245 b6f3 fdd4 c83f 137e a99f 3715 d7bf
00000630: 2fdd 2406 8195 c33f cba1 45b6 f3fd c43f
00000640: 2e73 ba2c 2636 7fbf f0a7 c64b 3789 c13f
00000650: fca9 f1d2 4d62 d83f 3c14 05fa 449e e1bf
00000660: 5839 b4c8 76be af3f 508d 976e 1283 e03f
00000670: 6440 f67a f7c7 ab3f 6666 6666 6666 c63f
00000680: 21b0 7268 91ed cc3f 3e5c 72dc 291d c0bf
00000690: 7f6a bc74 9318 c43f f4fd d478 e926 e1bf
000006a0: d196 7329 ae2a d33f 2b87 16d9 cef7 c33f
000006b0: a69b c420 b072 d0bf 2eff 21fd f675 e0bf
000006c0: b9fc 87f4 dbd7 b13f e09c 11a5 bdc1 b7bf
000006d0: 423e e8d9 acfa bcbf 9cc4 20b0 7268 c13f
000006e0: aaf1 d24d 6210 c83f 1613 9b8f 6b43 dbbf
000006f0: a1d6 34ef 3845 b73f 560e 2db2 9def c7bf
00000700: 2fa3 586e 6935 de3f e17a 14ae 47e1 ba3f
00000710: e17a 14ae 47e1 dabf cba1 45b6 f3fd d6bf
00000720: 1ceb e236 1ac0 ab3f 9318 0456 0e2d e23f
00000730: 0c02 2b87 16d9 bebf 21b0 7268 91ed bc3f
00000740: f2d2 4d62 1058 d9bf a167 b3ea 73b5 a5bf
00000750: 0ad7 a370 3d0a c73f c976 be9f 1a2f e13f
00000760: 747b 4963 b48e d23f 60e5 d022 dbf9 be3f
00000770: 3d0a d7a3 703d e2bf 2905 dd5e d218 db3f
00000780: ec51 b81e 85eb b13f b30c 71ac 8bdb b8bf
00000790: 1635 9886 e123 cabf 280f 0bb5 a679 b73f
000007a0: a470 3d0a d7a3 a03f 8638 d6c5 6d34 a03f
000007b0: fca9 f1d2 4d62 c03f 3d0a d7a3 703d ca3f
000007c0: e71d a7e8 482e db3f b762 7fd9 3d79 b83f
000007d0: b6f3 fdd4 78e9 e2bf 7e6f d39f fd48 b9bf
000007e0: 6b2b f697 dd93 b73f 0000 0000 0000 d0bf
000007f0: 9626 a5a0 db4b e13f d7a3 703d 0ad7 c33f
0.066 0.241 -0.50217 0.0601 -0.0436 0.37809 0.192 -0.253
0.03234 0.0796 0.338 0.32806 0.164 -0.352 0.1575 0.0732
-0.547 -0.15879 0.134 -0.309 0.45768 0.0964 0.165 0.38265
0.133 -0.368 0.57493 0.134 -0.473 0.36038 0.122 0.409
-0.47727 0.162 -0.0438 0.06471 0.0642 0.391 -0.37365 0.176
-0.428 -0.37041 0.198 0.182 -0.06222 0.186 0.167 -0.22488
0.171 -0.0573 -0.40968 0.109 0.139 -0.02027 0.123 0.105
0.19641 0.0793 -0.565 -0.59466 0.174 -0.286 -0.31015 0.112
0.408 0.00328 0.0615 0.0595 -0.57237 0.104 0.0779 -0.20625
0.169 -0.0866 -0.58694 0.104 -0.39 -0.26858 0.198 -0.387
-0.06174 0.149 0.207 0.38633 0.0945 0.394 -0.22795 0.125
-0.359 0.32749 0.126 -0.433 0.18039 0.136 0.376 0.20169
0.102 0.526 0.35529 0.0874 -0.379 -0.37125 0.144 0.0265
0.1874 0.156 0.32 -0.47055 0.119 0.371 0.20081 0.112
-0.448 -0.53236 0.0897 -0.347 -0.56185 0.0856 0.067 -0.16564
0.118 0.153 0.30279 0.117 -0.182 -0.03277 0.16 -0.232
0.31787 0.0567 -0.531 0.09968 0.103 0.413 -0.18167 0.151
0.454 -0.164 0.171 0.0925 -0.54926 0.0795 -0.484 0.33186
0.0791 0.406 -0.00611 0.113 -0.274 -0.05244 0.141 0.53
-0.09844 0.131 -0.589 0.54141 0.187 0.0673 -0.28717 0.189
-0.16 0.38755 0.0699 0.0436 -0.11778 0.151 -0.112 0.43144
0.0748 -0.246 0.5113 0.0768 -0.455 0.36891 0.138 0.214
-0.15032 0.154 0.35 0.52488 0.143 0.219 0.15441 0.195
-0.296 0.59159 0.0967 0.352 -0.3814 0.158 0.33 -0.35989
0.133 0.479 -0.26699 0.0844 0.194 -0.36067 0.153 0.164
-0.00762 0.137 0.381 -0.55057 0.062 0.516 0.05426 0.175
0.226 -0.12589 0.157 -0.536 0.29948 0.156 -0.257 -0.5144
0.0697 -0.0928 -0.1132 0.136 0.188 -0.42599 0.0909 -0.187
0.47201 0.105 -0.42 -0.35925 0.0542 0.568 -0.1205 0.113
-0.396 -0.0424 0.18 0.537 0.28996 0.121 -0.57 0.42339
0.07 -0.0971 -0.20422 0.0917 0.0325 0.03165 0.128 0.205
0.4247 0.0956 -0.591 -0.09877 0.0921 -0.25 0.54051 0.155
