data/n-mod_params_fp49.npy (npy, 142736 bytes, 1 tensors)

array f8 [5942, 3]
0.184 0.176 0.57984 0.118 0.15 -0.08334 0.157 -0.385
-0.20101 0.195 -0.279 -0.41768 0.105 0.227 0.16734 0.107
0.278 0.00778 0.156 0.395 -0.24842 0.147 0.11 0.40197
0.168 -0.00284 0.37161 0.0732 -0.547 -0.15879 0.182 0.0596
0.3558 0.192 -0.00546 0.454 0.0577 0.222 -0.1072 0.185
-0.216 -0.49983 0.138 0.304 -0.04455 0.121 0.205 0.16958
0.13 -0.154 -0.24253 0.152 -0.557 -0.29994 0.116 0.0593
0.28716 0.184 0.097 -0.57933 0.0576 -0.31 -0.55013 0.0729
-0.292 0.09184 0.161 -0.53 0.52716 0.194 -0.54 -0.22188
0.145 0.247 0.19685 0.124 0.487 -0.52098 0.118 -0.16
0.10821 0.195 0.21 -0.41283 0.0617 0.382 -0.43506 0.167
0.00836 0.48085 0.103 -0.229 0.29776 0.188 0.555 -0.42159
0.168 -0.382 0.45562 0.178 0.379 0.06142 0.133 -0.28
0.31871 0.0967 -0.555 0.24467 0.0693 -0.546 -0.17986 0.0528
0.403 -0.19988 0.151 0.363 0.30389 0.156 -0.3 0.18436
0.0796 0.0216 -0.42778 0.087 -0.215 -0.23922 0.116 -0.121
-0.26264 0.157 0.355 -0.51739 0.0606 -0.541 0.55222 0.191
-0.217 0.2865 0.116 -0.181 -0.53724 0.149 0.204 0.51295
0.109 -0.453 -0.56347 0.148 0.146 0.44124 0.151 -0.509
-0.26352 0.0767 -0.0587 -0.3089 0.0687 -0.339 -0.43325 0.113
-0.293 0.3537 0.074 0.323 0.47154 0.0956 -0.463 0.37096
0.0546 -0.246 0.55373 0.0672 -0.181 -0.27552 0.0635 -0.0924
-0.43131 0.155 -0.301 0.19753 0.107 0.0312 -0.1525 0.126
-0.278 0.24991 0.115 0.174 -0.35678 0.129 0.445 -0.34864
0.0537 0.0304 -0.15674 0.0734 0.478 0.13949 0.0685 0.141
-0.50163 0.106 -0.347 0.57957 0.0653 0.319 0.3159 0.116
0.573 -0.04985 0.115 0.474 0.36623 0.184 -0.177 -0.20977
0.127 -0.299 -0.4004 0.153 0.0895 0.35326 0.167 -0.576
0.5612 0.0734 0.16 0.06744 0.125 -0.0123 -0.04774 0.103
-0.597 -0.26882 0.18 -0.222 -0.17053 0.118 -0.19 0.0521
0.184 -0.282 0.48218 0.0779 -0.595 0.13621 0.068 0.36
-0.32578 0.0773 0.126 -0.36778 0.105 0.124 -0.34352 0.196
00000000: 5a64 3bdf 4f8d c73f ba49 0c02 2b87 c63f
00000010: 5934 9d9d 0c8e e23f 6891 ed7c 3f35 be3f
00000020: 3333 3333 3333 c33f 12da 722e c555 b5bf
00000030: 7f6a bc74 9318 c43f a470 3d0a d7a3 d8bf
00000040: 7ba0 1518 b2ba c9bf f628 5c8f c2f5 c83f
00000050: 4260 e5d0 22db d1bf b35e 0ce5 44bb dabf
00000060: e17a 14ae 47e1 ba3f 7593 1804 560e cd3f
00000070: 9604 a8a9 656b c53f 3108 ac1c 5a64 bb3f
00000080: 986e 1283 c0ca d13f 758e 01d9 ebdd 7f3f
00000090: 2b87 16d9 cef7 c33f 48e1 7a14 ae47 d93f
000000a0: 950e d6ff 39cc cfbf 3789 4160 e5d0 c23f
000000b0: 295c 8fc2 f528 bc3f 9947 fe60 e0b9 d93f
000000c0: 1b2f dd24 0681 c53f 6b48 dc63 e943 67bf
000000d0: b875 374f 75c8 d73f 0534 1136 3cbd b23f
000000e0: 1b2f dd24 0681 e1bf 8846 7710 3b53 c4bf
000000f0: b29d efa7 c64b c73f 32e6 ae25 e483 ae3f
00000100: daac fa5c 6dc5 d63f fa7e 6abc 7493 c83f
00000110: e882 fa96 395d 76bf 7593 1804 560e dd3f
00000120: b459 f5b9 da8a ad3f d122 dbf9 7e6a cc3f
00000130: 5396 218e 7571 bbbf ae47 e17a 14ae c73f
00000140: d9ce f753 e3a5 cbbf ccd1 e3f7 36fd dfbf
00000150: 448b 6ce7 fba9 c13f dbf9 7e6a bc74 d33f
00000160: 73d7 12f2 41cf a6bf 60e5 d022 dbf9 be3f
00000170: 3d0a d7a3 703d ca3f 8620 0725 ccb4 c53f
00000180: a470 3d0a d7a3 c03f 83c0 caa1 45b6 c3bf
00000190: b341 2619 390b cfbf dbf9 7e6a bc74 c33f
000001a0: 6de7 fba9 f1d2 e1bf 8ac8 b08a 3732 d3bf
000001b0: 1904 560e 2db2 bd3f cd3b 4ed1 915c ae3f
000001c0: ff09 2e56 d460 d23f 5a64 3bdf 4f8d c73f
000001d0: a245 b6f3 fdd4 b83f 0bef 7211 df89 e2bf
000001e0: 92cb 7f48 bf7d ad3f d7a3 703d 0ad7 d3bf
000001f0: 268d d13a aa9a e1bf d3de e00b 93a9 b23f
00000200: e3a5 9bc4 20b0 d2bf a6f2 7684 d382 b73f
00000210: cff7 53e3 a59b c43f f628 5c8f c2f5 e0bf
00000220: ad4c f8a5 7ede e03f a245 b6f3 fdd4 c83f
00000230: 48e1 7a14 ae47 e1bf 2d78 d157 9066 ccbf
00000240: 8fc2 f528 5c8f c23f 0456 0e2d b29d cf3f
00000250: 51da 1b7c 6132 c93f 5839 b4c8 76be bf3f
00000260: 5eba 490c 022b df3f b2d7 bb3f deab e0bf
00000270: 6891 ed7c 3f35 be3f 7b14 ae47 e17a c4bf
00000280: 16a4 198b a6b3 bb3f f628 5c8f c2f5 c83f
00000290: e17a 14ae 47e1 ca3f 07b1 3385 ce6b dabf
000002a0: f38e 5374 2497 af3f a69b c420 b072 d83f
000002b0: 800e f3e5 05d8 dbbf c74b 3789 4160 c53f
000002c0: aca8 c134 0c1f 813f bc05 1214 3fc6 de3f
000002d0: 91ed 7c3f 355e ba3f 1d5a 643b df4f cdbf
000002e0: 3ca5 83f5 7f0e d33f aaf1 d24d 6210 c83f
000002f0: c3f5 285c 8fc2 e13f 5e85 949f 54fb dabf
00000300: 1b2f dd24 0681 c53f a69b c420 b072 d8bf
00000310: 46d3 d9c9 e028 dd3f 6210 5839 b4c8 c63f
00000320: a8c6 4b37 8941 d83f fc00 a436 7172 af3f
00000330: a01a 2fdd 2406 c13f ec51 b81e 85eb d1bf
00000340: 4b1f baa0 be65 d43f 6ff0 85c9 54c1 b83f
00000350: c3f5 285c 8fc2 e1bf 1afa 27b8 5851 cf3f
00000360: 76e0 9c11 a5bd b13f 46b6 f3fd d478 e1bf
00000370: 4be5 ed08 a705 c7bf 4625 7502 9a08 ab3f
00000380: 986e 1283 c0ca d93f f6ee 8ff7 aa95 c9bf
00000390: 8716 d9ce f753 c33f 08ac 1c5a 643b d73f
000003a0: 5036 e50a ef72 d33f 2b87 16d9 cef7 c33f
000003b0: 3333 3333 3333 d3bf 4564 58c5 1b99 c73f
000003c0: 38f8 c264 aa60 b43f aed8 5f76 4f1e 963f
000003d0: 1b81 785d bf60 dbbf 1283 c0ca a145 b63f
000003e0: 85eb 51b8 1e85 cbbf 9049 46ce c29e cebf
000003f0: 1904 560e 2db2 bd3f 60e5 d022 dbf9 bebf
00000400: acc5 a700 18cf d0bf 7f6a bc74 9318 c43f
00000410: b81e 85eb 51b8 d63f cae0 2879 758e e0bf
00000420: 8273 4694 f606 af3f 1d5a 643b df4f e1bf
00000430: cf4e 0647 c9ab e13f a69b c420 b072 c83f
00000440: 2db2 9def a7c6 cbbf bc74 9318 0456 d23f
00000450: 1904 560e 2db2 bd3f 5eba 490c 022b c7bf
00000460: 1b4c c3f0 1131 e1bf df4f 8d97 6e12 c33f
00000470: e926 3108 ac1c ca3f 6076 4f1e 166a e03f
00000480: 8195 438b 6ce7 bb3f cba1 45b6 f3fd dcbf
00000490: 2bde c83c f207 e2bf 8b6c e7fb a9f1 c23f
000004a0: e3a5 9bc4 20b0 c23f 77f8 6bb2 463d dc3f
000004b0: 8716 d9ce f753 c33f 7d3f 355e ba49 e0bf
000004c0: 04e2 75fd 82dd d0bf 516b 9a77 9ca2 b33f
000004d0: 04e7 8c28 ed0d aebf 6900 6f81 04c5 d3bf
000004e0: 1136 3cbd 5296 b13f 1904 560e 2db2 d5bf
000004f0: ee7c 3f35 5eba dbbf 21b0 7268 91ed bc3f
00000500: 8d97 6e12 83c0 d2bf c217 2653 05a3 d63f
00000510: 8b6c e7fb a9f1 b23f 79e9 2631 08ac d43f
00000520: af5f b01b b62d de3f b762 7fd9 3d79 b83f
00000530: 6f12 83c0 caa1 ddbf 3df2 0703 cfbd d73f
00000540: a323 b9fc 87f4 ab3f b072 6891 ed7c cfbf
00000550: f20c 1afa 27b8 e13f 158c 4aea 0434 b13f
00000560: 5eba 490c 022b c7bf fc35 59a3 1ea2 d1bf
00000570: a8c6 4b37 8941 b03f 9d80 26c2 86a7 b7bf
00000580: 4304 1c42 959a dbbf d7a3 703d 0ad7 c33f
00000590: dd24 0681 9543 d3bf f14b fdbc a948 c93f
000005a0: 3108 ac1c 5a64 bb3f de71 8a8e e4f2 9f3f
000005b0: 85eb 51b8 1e85 c3bf 54e3 a59b c420 c03f
000005c0: 986e 1283 c0ca d1bf 05c0 7806 0dfd cf3f
000005d0: 713d 0ad7 a370 bd3f 1283 c0ca a145 c63f
000005e0: f67a f7c7 7bd5 d6bf 508d 976e 1283 c03f
000005f0: 7b14 ae47 e17a dc3f c7f4 8425 1e50 d6bf
00000600: 7424 97ff 907e ab3f c58f 3177 2d21 9f3f
00000610: 1cce fc6a 0e10 c4bf 27c2 86a7 57ca b23f
00000620: 643b df4f 8d97 de3f b43c 0fee ceda c13f
00000630: f0a7 c64b 3789 b13f 3f35 5eba 490c c23f
00000640: cc28 965b 5a0d e0bf 8941 60e5 d022 bb3f
00000650: 6891 ed7c 3f35 d6bf 5dc4 7762 d68b e23f
00000660: d6c5 6d34 80b7 b03f d122 dbf9 7e6a d43f
00000670: 0f9c 33a2 b437 d43f 1904 560e 2db2 bd3f
00000680: bc74 9318 0456 e23f 6744 696f f085 a9bf
00000690: 713d 0ad7 a370 bd3f bc74 9318 0456 de3f
000006a0: e319 34f4 4f70 d73f 5a64 3bdf 4f8d c73f
000006b0: 0e2d b29d efa7 c6bf 2849 d74c bed9 cabf
000006c0: a8c6 4b37 8941 c03f 8941 60e5 d022 d3bf
000006d0: aa60 5452 27a0 d9bf 2fdd 2406 8195 c33f
000006e0: b6f3 fdd4 78e9 b63f 9609 bfd4 cf9b d63f
000006f0: c74b 3789 4160 c53f 3bdf 4f8d 976e e2bf
00000700: 857c d0b3 59f5 e13f 27c2 86a7 57ca b23f
00000710: 7b14 ae47 e17a c43f a436 7172 bf43 b13f
00000720: 0000 0000 0000 c03f 8d28 ed0d be30 89bf
00000730: 6f0d 6c95 6071 a8bf 91ed 7c3f 355e ba3f
00000740: b4c8 76be 9f1a e3bf a3af 20cd 5834 d1bf
00000750: 0ad7 a370 3d0a c73f d122 dbf9 7e6a ccbf
00000760: 1552 7e52 edd3 c5bf 6891 ed7c 3f35 be3f
00000770: 52b8 1e85 eb51 c8bf 5b42 3ee8 d9ac aa3f
00000780: 5a64 3bdf 4f8d c73f 3f35 5eba 490c d2bf
00000790: 0742 b280 09dc de3f 1ac0 5b20 41f1 b33f
000007a0: 0ad7 a370 3d0a e3bf 3aaf b14b 546f c13f
000007b0: 9cc4 20b0 7268 b13f 0ad7 a370 3d0a d73f
000007c0: 6137 6c5b 94d9 d4bf b515 fbcb eec9 b33f
000007d0: 54e3 a59b c420 c03f 44dd 0720 b589 d7bf
000007e0: e17a 14ae 47e1 ba3f 5839 b4c8 76be bf3f
000007f0: 2367 614f 3bfc d5bf 4a0c 022b 8716 c93f
