data/params_fp49.npy (npy, 142736 bytes, 1 tensors)

array f8 [5942, 3]
0.0988 -0.47 -0.51869 0.177 0.117 -0.11638 0.15 0.228
-0.46383 0.0971 -0.523 0.43361 0.0827 -0.0639 -0.15991 0.0524
-0.53 0.54333 0.167 -0.584 -0.56118 0.141 -0.286 0.3762
0.085 -0.229 0.23728 0.2 -0.256 -0.3447 0.122 0.5
-0.11855 0.181 0.29 0.2153 0.139 0.253 0.49959 0.15
-0.278 0.59721 0.176 0.392 -0.4565 0.122 0.392 0.44636
0.116 0.452 0.53524 0.133 -0.00256 0.32511 0.0571 0.134
0.11479 0.156 0.11 -0.53762 0.155 -0.189 -0.06791 0.0657
0.124 0.19123 0.127 0.517 -0.40909 0.0593 0.183 -0.31893
0.0694 0.044 0.52833 0.0652 -0.326 -0.10166 0.161 0.409
0.37336 0.102 -0.483 -0.14922 0.11 0.438 0.4092 0.125
0.076 -0.25498 0.0554 -0.533 -0.37173 0.172 0.255 -0.03294
0.197 -0.14 -0.1892 0.144 -0.0975 -0.44466 0.0752 -0.189
0.39213 0.13 0.486 0.15322 0.0792 0.454 0.07934 0.129
0.445 -0.34864 0.127 0.446 -0.37336 0.0571 0.557 -0.55405
0.169 -0.156 -0.49522 0.1 -0.11 0.15945 0.126 0.316
0.13218 0.166 -0.378 -0.54531 0.103 0.518 0.24613 0.0672
0.459 -0.40701 0.116 -0.248 -0.3748 0.194 -0.546 -0.51973
0.162 0.316 -0.3392 0.188 0.474 -0.52193 0.151 0.43
0.13343 0.0822 -0.328 0.04188 0.177 -0.0327 -0.48084 0.0571
-0.00251 -0.10143 0.104 0.234 -0.04979 0.0588 -0.0772 -0.26499
0.0696 -0.447 0.27122 0.102 0.421 0.24982 0.169 -0.27
-0.47999 0.128 -0.0547 0.4631 0.148 -0.091 -0.39627 0.0515
0.337 0.05403 0.0605 0.583 -0.4062 0.167 -0.537 -0.41599
0.11 -0.078 -0.14914 0.0663 0.119 0.5753 0.177 -0.0861
-0.30389 0.131 0.126 0.21396 0.197 -0.518 0.22666 0.172
0.427 -0.03617 0.0839 -0.492 -0.39961 0.167 -0.373 0.53592
0.171 -0.123 0.36331 0.0601 -0.0436 0.37809 0.0574 -0.236
0.24215 0.0622 0.34 -0.18141 0.174 -0.522 0.16799 0.179
-0.419 0.43766 0.0641 0.31 0.40883 0.147 0.434 -0.48475
0.196 -0.441 0.13773 0.0802 -0.387 0.27069 0.0928 0.488
-0.5226 0.14 -0.253 -0.42147 0.129 0.0128 -0.4526 0.157
00000000: d044 d8f0 f44a b93f 14ae 47e1 7a14 debf
00000010: 4564 58c5 1b99 e0bf 0e2d b29d efa7 c63f
00000020: c1ca a145 b6f3 bd3f 2592 e865 14cb bdbf
00000030: 3333 3333 3333 c33f c976 be9f 1a2f cd3f
00000040: e5d5 3906 64af ddbf b30c 71ac 8bdb b83f
00000050: 23db f97e 6abc e0bf e3fc 4d28 44c0 db3f
00000060: 4013 61c3 d32b b53f ebe2 361a c05b b0bf
00000070: 80d4 264e ee77 c4bf c0ec 9e3c 2cd4 aa3f
00000080: f628 5c8f c2f5 e0bf 17f1 9d98 f562 e13f
00000090: c74b 3789 4160 c53f e3a5 9bc4 20b0 e2bf
000000a0: be6a 65c2 2ff5 e1bf 3f35 5eba 490c c23f
000000b0: e7fb a9f1 d24d d2bf 3255 302a a913 d83f
000000c0: c3f5 285c 8fc2 b53f 1d5a 643b df4f cdbf
000000d0: 3a58 ffe7 305f ce3f 9a99 9999 9999 c93f
000000e0: fca9 f1d2 4d62 d0bf c898 bb96 900f d6bf
000000f0: 08ac 1c5a 643b bf3f 0000 0000 0000 e03f
00000100: 45d8 f0f4 4a59 bebf 5eba 490c 022b c73f
00000110: 8fc2 f528 5c8f d23f 1e16 6a4d f38e cb3f
00000120: 986e 1283 c0ca c13f fed4 78e9 2631 d03f
00000130: 2827 da55 48f9 df3f 3333 3333 3333 c33f
00000140: 986e 1283 c0ca d1bf 5c03 5b25 581c e33f
00000150: ba49 0c02 2b87 c63f 4a0c 022b 8716 d93f
00000160: 9eef a7c6 4b37 ddbf 08ac 1c5a 643b bf3f
00000170: 4a0c 022b 8716 d93f 1a86 8f88 2991 dc3f
00000180: 1904 560e 2db2 bd3f 21b0 7268 91ed dc3f
00000190: 715a f0a2 af20 e13f a01a 2fdd 2406 c13f
000001a0: f168 e388 b5f8 64bf 5890 662c 9ace d43f
000001b0: ea04 3411 363c ad3f f4fd d478 e926 c13f
000001c0: 3468 e89f e062 bd3f 2b87 16d9 cef7 c33f
000001d0: 295c 8fc2 f528 bc3f dc9d b5db 2e34 e1bf
000001e0: d7a3 703d 0ad7 c33f fed4 78e9 2631 c8bf
000001f0: a644 12bd 8c62 b1bf 19e2 5817 b7d1 b03f
00000200: 5839 b4c8 76be bf3f 60cd 0182 397a c83f
00000210: a8c6 4b37 8941 c03f 2506 8195 438b e03f
00000220: 91b8 c7d2 872e dabf cd3b 4ed1 915c ae3f
00000230: 0681 9543 8b6c c73f 61a6 ed5f 5969 d4bf
00000240: 87a7 57ca 32c4 b13f ba49 0c02 2b87 a63f
00000250: 9cdc ef50 14e8 e03f c5fe b27b f2b0 b03f
00000260: 77be 9f1a 2fdd d4bf 4ab5 4fc7 6306 babf
00000270: cff7 53e3 a59b c43f 9318 0456 0e2d da3f
00000280: a29c 6857 21e5 d73f e926 3108 ac1c ba3f
00000290: b6f3 fdd4 78e9 debf 0b5e f415 a419 c3bf
000002a0: 295c 8fc2 f528 bc3f d578 e926 3108 dc3f
000002b0: 1c7c 6132 5530 da3f 0000 0000 0000 c03f
000002c0: dbf9 7e6a bc74 b33f c494 48a2 9751 d0bf
000002d0: af94 6588 635d ac3f 7593 1804 560e e1bf
000002e0: 0a4b 3ca0 6cca d7bf 6abc 7493 1804 c63f
000002f0: 52b8 1e85 eb51 d03f 04e2 75fd 82dd a0bf
00000300: 9eef a7c6 4b37 c93f ec51 b81e 85eb c1bf
00000310: 0f9c 33a2 b437 c8bf 3bdf 4f8d 976e c23f
00000320: f628 5c8f c2f5 b8bf 13b8 7537 4f75 dcbf
00000330: 55c1 a8a4 4e40 b33f fed4 78e9 2631 c8bf
00000340: 62f3 716d a818 d93f a470 3d0a d7a3 c03f
00000350: b4c8 76be 9f1a df3f 5beb 8b84 b69c c33f
00000360: f5db d781 7346 b43f 7593 1804 560e dd3f
00000370: 72bf 4351 a04f b43f 508d 976e 1283 c03f
00000380: 7b14 ae47 e17a dc3f c7f4 8425 1e50 d6bf
00000390: a8c6 4b37 8941 c03f 2506 8195 438b dc3f
000003a0: a29c 6857 21e5 d7bf ea04 3411 363c ad3f
000003b0: 6de7 fba9 f1d2 e13f 5f29 cb10 c7ba e1bf
000003c0: 6f12 83c0 caa1 c53f 2b87 16d9 cef7 c3bf
000003d0: c4ce 143a afb1 dfbf 9a99 9999 9999 b93f
000003e0: 295c 8fc2 f528 bcbf 0d71 ac8b db68 c43f
000003f0: 54e3 a59b c420 c03f d34d 6210 5839 d43f
00000400: 41b7 9734 46eb c03f 7368 91ed 7c3f c53f
00000410: fed4 78e9 2631 d8bf fad0 05f5 2d73 e1bf
00000420: 91ed 7c3f 355e ba3f fa7e 6abc 7493 e03f
00000430: e140 4816 3081 cf3f 158c 4aea 0434 b13f
00000440: c74b 3789 4160 dd3f 0647 c9ab 730c dabf
00000450: 1904 560e 2db2 bd3f 5839 b4c8 76be cfbf
00000460: 789c a223 b9fc d7bf a245 b6f3 fdd4 c83f
00000470: 46b6 f3fd d478 e1bf a800 18cf a0a1 e0bf
00000480: 23db f97e 6abc c43f d34d 6210 5839 d43f
00000490: a167 b3ea 73b5 d5bf aaf1 d24d 6210 c83f
000004a0: bc74 9318 0456 de3f 16a4 198b a6b3 e0bf
000004b0: 8716 d9ce f753 c33f 85eb 51b8 1e85 db3f
000004c0: 6a13 27f7 3b14 c13f ec2f bb27 0f0b b53f
000004d0: cba1 45b6 f3fd d4bf 8c84 b69c 4b71 a53f
000004e0: 0e2d b29d efa7 c63f e78c 28ed 0dbe a0bf
000004f0: f5f3 a622 15c6 debf ea04 3411 363c ad3f
00000500: e4f7 36fd d98f 64bf d751 d504 51f7 b9bf
00000510: 39b4 c876 be9f ba3f c1ca a145 b6f3 cd3f
00000520: 20ef 552b 137e a9bf 2575 029a 081b ae3f
00000530: a54e 4013 61c3 b3bf 2f17 f19d 98f5 d0bf
00000540: a835 cd3b 4ed1 b13f cff7 53e3 a59b dcbf
00000550: 085a 8121 ab5b d13f e926 3108 ac1c ba3f
00000560: 8b6c e7fb a9f1 da3f 0a80 f10c 1afa cf3f
00000570: 6f12 83c0 caa1 c53f 48e1 7a14 ae47 d1bf
00000580: f20c 1afa 27b8 debf fca9 f1d2 4d62 c03f
00000590: c4b1 2e6e a301 acbf 33c4 b12e 6ea3 dd3f
000005a0: 8b6c e7fb a9f1 c23f b29d efa7 c64b b7bf
000005b0: eab2 98d8 7c5c d9bf 91ed 7c3f 355e aa3f
000005c0: c520 b072 6891 d53f 7d79 01f6 d1a9 ab3f
000005d0: 60e5 d022 dbf9 ae3f 0e2d b29d efa7 e23f
000005e0: 1ea7 e848 2eff d9bf c74b 3789 4160 c53f
000005f0: c976 be9f 1a2f e1bf 73a2 5d85 949f dabf
00000600: 295c 8fc2 f528 bc3f 2b87 16d9 cef7 b3bf
00000610: 9e41 43ff 0417 c3bf 7e8c b96b 09f9 b03f
00000620: 1058 39b4 c876 be3f 0d71 ac8b db68 e23f
00000630: 0e2d b29d efa7 c63f 7b83 2f4c a60a b6bf
00000640: 5036 e50a ef72 d3bf f853 e3a5 9bc4 c03f
00000650: 54e3 a59b c420 c03f fb79 5391 0a63 cb3f
00000660: 9eef a7c6 4b37 c93f fa7e 6abc 7493 e0bf
00000670: a5da a7e3 3103 cd3f 6abc 7493 1804 c63f
00000680: 8716 d9ce f753 db3f db50 31ce df84 a2bf
00000690: 0a68 226c 787a b53f b072 6891 ed7c dfbf
000006a0: 50e4 49d2 3593 d9bf c74b 3789 4160 c53f
000006b0: ac1c 5a64 3bdf d7bf d8b6 28b3 4126 e13f
000006c0: 17d9 cef7 53e3 c53f b072 6891 ed7c bfbf
000006d0: 1cd3 1396 7840 d73f daac fa5c 6dc5 ae3f
000006e0: 3411 363c bd52 a6bf fb74 3c66 a032 d83f
000006f0: 4faf 9465 8863 ad3f 6891 ed7c 3f35 cebf
00000700: adfa 5c6d c5fe ce3f 9b55 9fab add8 af3f
00000710: c3f5 285c 8fc2 d53f 0d6c 9560 7138 c7bf
00000720: 1283 c0ca a145 c63f 4e62 1058 39b4 e0bf
00000730: 8d0b 0742 b280 c53f b6f3 fdd4 78e9 c63f
00000740: 3789 4160 e5d0 dabf 6d1c b116 9f02 dc3f
00000750: 0d71 ac8b db68 b03f d7a3 703d 0ad7 d33f
00000760: 60ea e74d 452a da3f 3789 4160 e5d0 c23f
00000770: 2db2 9def a7c6 db3f a01a 2fdd 2406 dfbf
00000780: 4a0c 022b 8716 c93f d34d 6210 5839 dcbf
00000790: 53cb d6fa 22a1 c13f 9ca2 23b9 fc87 b43f
000007a0: f853 e3a5 9bc4 d8bf deab 5626 fc52 d13f
000007b0: e09c 11a5 bdc1 b73f 08ac 1c5a 643b df3f
000007c0: 9a77 9ca2 23b9 e0bf ec51 b81e 85eb c13f
000007d0: fed4 78e9 2631 d0bf 0cb0 8f4e 5df9 dabf
000007e0: 508d 976e 1283 c03f 2d43 1ceb e236 8a3f
000007f0: bada 8afd 65f7 dcbf 7f6a bc74 9318 c43f
